Models/brain2_lenet_trained.pth (torch, 250261 bytes, 10 tensors)

conv1.weight f4 [6, 3, 5, 5]
000000 d0 4d 3d 3e 57 ab 97 3c 65 57 bf bc e6 19 5e 3d
       0.18486714 0.018514318 -0.023357103 0.054223917
000010 92 ea 2b 3e 79 8f ff 3c 7e 18 bd bc d2 b9 ef bc
       0.167887 0.031196343 -0.023082968 -0.02926341
000020 a0 78 94 bd 8b e6 09 bd ab 3f d2 bd d5 d3 91 3d
       -0.0724957 -0.03366713 -0.1026605 0.07120482
000030 ea 09 bb bd 32 0d d8 bd f3 05 68 3d 33 af 59 3d
       -0.0913275 -0.10549392 0.0566463 0.0531456
000040 76 07 e2 bd c3 80 d3 3d a5 1a c7 bd 09 ab d8 3d
       -0.11036579 0.10327294 -0.09721879 0.10579497
000050 02 42 11 bd da 65 d8 3d 29 e9 b5 3c f6 d6 f7 3d
       -0.03546334 0.10566302 0.022205906 0.121015474
000060 8c 2b 13 3e 93 e4 42 3d b6 9c 97 3d fd 8c 1d bd
       0.1437208 0.047581267 0.07402937 -0.038464535
000070 24 4f cb bd 91 8a a3 3d bd c4 4f bc df 37 dc 3c
       -0.09927204 0.07985414 -0.012681183 0.02688211
000080 03 32 2e be de f4 37 be 41 eb de ba 27 b1 d4 bd
       -0.17011265 -0.17964503 -0.0017007367 -0.10385352
000090 9c d2 d5 bd 10 5d 0e be e3 af 18 be 68 fd ca 3c
       -0.10440561 -0.13902688 -0.14910845 0.024779037
0000a0 32 4d 9c bd d4 e8 b5 bd 20 6c 94 bd cc 1f 10 bc
       -0.07631911 -0.08882299 -0.07247186 -0.0087966435
0000b0 3e ff 70 3d bf cd cf 3d cd 8b 36 bd dc 40 73 bd
       0.058837168 0.10146665 -0.04456692 -0.059388027
0000c0 b6 3e 2d 3d 87 8c 81 3b c5 fd 06 3d 73 22 05 bd
       0.042296134 0.0039535197 0.032956857 -0.032503556
0000d0 e3 96 31 3d d7 d4 82 3c df 11 1d 3d 4b d8 7c bd
       0.043356787 0.01597063 0.03834712 -0.06172971
0000e0 61 79 a2 bd b4 54 53 be 8e 41 77 be 26 cd a3 bd
       -0.079333074 -0.2063778 -0.24146101 -0.07998113
0000f0 f4 2f 60 be 75 ab 8f bd ce e0 f5 bd 34 c9 df bd
       -0.21893293 -0.07015125 -0.12005769 -0.10927048
000100 ea 13 bc bd 59 ee 19 be 04 ae b4 bd a0 7d 9a bd
       -0.09183486 -0.15032329 -0.08822253 -0.07543492
000110 28 62 66 bd 93 37 14 be 04 36 90 3d 0c 7b b6 3c
       -0.056245953 -0.14474325 0.07041553 0.02227547
000120 d6 a4 16 bd 1e ba 91 3d 1b a9 8d bd 18 c3 93 3b
       -0.036778294 0.07115577 -0.0691702 0.004509341
000130 7a 40 ab bb ba 34 4b bc 19 00 a7 3d 5e 81 a9 bd
       -0.005226192 -0.012402708 0.081543155 -0.08276628
000140 06 3e 04 3b f8 42 40 be 69 b4 a5 3d 5e 69 2f 3e
       0.002017857 -0.18775547 0.08091051 0.17130038
000150 7d eb 2f be 62 13 37 3d 41 8e 79 be 6e 71 29 be
       -0.17179675 0.04469622 -0.24370672 -0.16547176
000160 84 b5 60 3e b9 0f 5f bd 9a 74 74 bd ba 3a 35 be
       0.21944243 -0.054458354 -0.059681512 -0.17698184
000170 9e 07 80 bc 92 03 3c 3e cf 89 e1 3d 08 70 13 be
       -0.015628632 0.18360737 0.11012613 -0.14398205
000180 23 a7 30 be a1 73 b3 bd ae e3 81 3d de 87 09 3e
       -0.17251258 -0.08762289 0.063422546 0.13430735
000190 c3 2c e4 bd 31 df fb bd 69 2e 21 3d 7a a4 ec 3d
       -0.1114135 -0.1229843 0.0393509 0.11554809
0001a0 6d b6 1f bd 99 37 82 bd 6a 8f fe bc f3 70 00 3e
       -0.038992334 -0.06358261 -0.031074245 0.12543087
0001b0 9e c9 66 3d 68 93 8c bd 92 41 ab bc 91 f7 41 be
       0.05634462 -0.06864053 -0.02090529 -0.18942095
0001c0 54 4d 14 be a7 e4 5d 3e 7d f5 96 3d b8 0c 78 3d
       -0.14482623 0.21669255 0.07371042 0.060559005
0001d0 2b ca 2f bd 59 46 7d bc 6f 62 b5 3d 41 74 3b 3e
       -0.04291741 -0.015458667 0.08856665 0.18306066
0001e0 34 4b 74 bd ec 79 cf bd 89 6e 26 bd 02 36 19 3e
       -0.05964203 -0.101306766 -0.04063276 0.14962009
0001f0 54 58 1f 3e 04 21 05 bd ef 3f d9 bd bc 84 72 3d
       0.15561038 -0.03250219 -0.106078975 0.059208617
000200 72 95 47 3e c4 df 63 bd 23 81 af bd 33 57 06 be
       0.19490603 -0.05563332 -0.08569553 -0.13119201
000210 b8 25 35 bc 70 59 db 3d 20 3b 88 3d 0f 51 cd 3d
       -0.011056356 0.10710418 0.06651902 0.10025226
000220 ed 67 59 be 62 47 1d bd d9 bc 40 3e fa 7b 2a 3d
       -0.21231051 -0.038398154 0.1882204 0.04162214
000230 15 8d ec bd ab 68 07 be 44 b7 ce bc 37 f4 99 3e
       -0.11550347 -0.13223521 -0.025233872 0.30069134
000240 01 bd 0b 3e fd c2 ae bd 35 da 17 3d 24 59 83 3a
       0.13646318 -0.08533285 0.037073333 0.0010021073
000250 04 b8 3a 3e 1e bb 65 3e 3c 1d 0b 3e 2c fe 42 3e
       0.18234259 0.22434661 0.13585371 0.19042271
000260 59 95 4e 3d 22 98 14 3e d8 85 39 3e 8c 0a 56 bd
       0.050435398 0.14511159 0.18117464 -0.052256152
000270 04 5b 0b 3d db 78 cd bc 23 1f 60 3e 65 40 3a 3e
       0.034022346 -0.025082042 0.21886878 0.18188627
000280 6d 0b 65 bd bc 41 c2 bd 3c e1 b4 3d 76 4e 80 3d
       -0.0559191 -0.09485194 0.088320225 0.06264965
000290 63 00 1f be 33 fe fe bb 22 b2 3f be 51 83 73 bd
       -0.15527491 -0.0077817678 -0.18720296 -0.059451405
0002a0 7c b4 b1 3c 7b e2 13 be fc ba 2a be 66 63 5b be
       0.021692507 -0.14441864 -0.16672891 -0.21424636
0002b0 73 b6 21 be 57 d8 db 3c b5 d7 a5 bd 0a 82 08 3e
       -0.15792255 0.026836557 -0.080977835 0.13330856
0002c0 91 93 84 3e 6a 1b fd bc 31 20 15 3e bf be 40 3e
       0.25893834 -0.030896861 0.14563061 0.18822764
0002d0 5b e7 13 3e a2 9d fa 3d 11 84 1c 3d b8 77 15 3e
       0.14443724 0.12237097 0.038211886 0.1459645
0002e0 f6 87 80 3d 48 a6 8a 3d df ad a2 3d 16 f8 c6 bc
       0.062759325 0.06769997 0.079433195 -0.024288218
0002f0 ab d2 37 3c 67 e1 e6 bd a9 ae 13 3d c5 73 95 be
       0.011219661 -0.11273461 0.03605524 -0.29189888
000300 b8 8c 70 bc 42 73 8f bd a7 78 0c be a6 22 38 be
       -0.014681987 -0.070044056 -0.137179 -0.17981967
000310 e0 50 61 be 04 fc 07 be 70 5d 5f bc 50 5b 24 be
       -0.22003508 -0.1327973 -0.013633117 -0.16050458
000320 51 7f b3 3d b1 ae 9f 3e b0 32 48 3e cf 4e 5b 3d
       0.08764518 0.31187966 0.19550586 0.053541955
000330 8e f6 16 3e 6e 45 29 bc a4 d4 51 3e 38 79 8e 3c
       0.1474249 -0.010331495 0.20491272 0.017391786
000340 39 05 ba 3d 23 1e 18 3e a6 40 05 3e 35 fc e4 bd
       0.090830274 0.14855246 0.13012943 -0.11180917
000350 6e 18 78 3b 75 c8 f9 3c 8f d6 15 be 73 be c7 bd
       0.0037856358 0.030491093 -0.14632629 -0.09753122
000360 67 18 5e be fd 2c 65 be f0 80 61 3c ef 65 61 be
       -0.21688996 -0.22380443 0.013763651 -0.22011541
000370 5a d9 2e bd a7 0b 19 be e8 9c f3 bd ef 59 40 bd
       -0.04268775 -0.14945851 -0.11895162 -0.046960767
000380 15 7f be bd f9 4a 29 be f7 37 73 3d 51 63 ff bd
       -0.09301583 -0.16532506 0.059379544 -0.12470115
000390 9c e9 cd bd 41 70 8f 3c da 4c 3c 3d fe 35 0c 3a
       -0.10054323 0.017509582 0.04597173 0.00053486216
0003a0 a5 74 84 3d a2 0e 9a 3d 72 31 df 3c d2 24 55 bc
       0.06467561 0.07522322 0.027245257 -0.013009267
0003b0 f8 79 7f 3e 3f 32 04 3d 76 5f f8 bc 94 1c 84 bd
       0.24948871 0.03227448 -0.030318957 -0.06450763
0003c0 02 4e b3 3d 50 22 89 3e 1c e0 3b 3d c8 81 37 be
       0.08755113 0.2678399 0.045868024 -0.17920601
0003d0 7b c7 59 be 78 ca c2 bb 9b f7 77 3d 15 75 2d be
       -0.21267502 -0.0059445463 0.06053887 -0.16939195
0003e0 47 cc 3c be 72 28 60 3d 82 3f fa bd cf 6b dd 3d
       -0.184373 0.05472607 -0.122191444 0.108115785
0003f0 62 0f 77 bd 35 a9 3f be 21 2b a5 3d 14 2b 8d 3d
       -0.060317405 -0.18716891 0.08064867 0.06892982

conv1.bias f4 [6]
000000 97 d7 08 be 4d ab 13 3d c8 73 89 3d 46 21 71 3e
       -0.13363491 0.036052037 0.06711537 0.23547849
000010 29 c7 c1 3d 0c 85 18 3e
       0.09461815 0.14894503

conv2.weight f4 [16, 6, 5, 5]
000000 d6 53 c3 bd bb cd e5 3c 47 07 08 3d fe e2 c5 bc
       -0.09537475 0.028052201 0.033210065 -0.02415609
000010 dc 94 4f 3b b1 86 27 be 0a 33 35 bc 10 1b eb 3d
       0.003167442 -0.16359974 -0.011059532 0.11479771
000020 1e c3 56 3c 7d b8 00 be 2d 73 dd bd 37 4e 94 3d
       0.013108043 -0.12570377 -0.10812984 0.07241481
000030 3e 3d 9b 3c 4e 30 d8 3c c4 02 f9 bc e5 88 4e 3c
       0.018950101 0.026390221 -0.030396827 0.01260588
000040 fb 99 83 bd f9 ee aa 3d 6c 01 bd 3d a5 03 34 bc
       -0.06425854 0.08346362 0.09228787 -0.010987197
000050 8b 06 79 3d e8 cf 3c 3d 72 19 14 3c 05 c4 a1 3d
       0.060797255 0.046096712 0.00903927 0.07898716
000060 a9 e3 6d 3d 44 e8 b0 bd f1 5a c6 3b 04 47 16 3e
       0.05807844 -0.08638051 0.0060533215 0.14675528
000070 ad e8 1c 3e 4c f9 50 be e4 0c 0a be e7 14 01 be
       0.15323134 -0.20407599 -0.1348148 -0.1260563
000080 e1 f9 73 3e 17 89 53 3e 6d ca b9 3c 71 a3 26 be
       0.2382579 0.20657764 0.022679532 -0.16273285
000090 89 78 24 bd d1 7d af 3a 9c cb 31 3d d1 d8 a4 3d
       -0.040154014 0.0013388937 0.043407068 0.08049167
0000a0 10 5e 4a 3c cd a8 c6 3d 67 5a 07 be f3 83 06 3d
       0.012351528 0.09700165 -0.1321808 0.03284068
0000b0 a1 7c 71 3d af 78 0f bc a7 f1 f6 3d c6 78 fb bd
       0.058956746 -0.008756801 0.1205781 -0.12278895
0000c0 3b 52 d9 3c 2d bc cf 3c ed d0 0a bd 04 ae ac bd
       0.026528468 0.025358284 -0.033890653 -0.08431628
0000d0 dd 85 24 bd 19 93 3b 3d 00 9d 9b bd 85 1d 8a 3d
       -0.040166724 0.04579458 -0.07598305 0.06743912
0000e0 23 1f 73 bd 95 0b ad bd ca ac 46 bc 95 44 27 bb
       -0.059355866 -0.08449475 -0.012126157 -0.0025523056
0000f0 80 ef 5c 3c 97 21 93 bd 2e d2 83 bc 59 cd 34 3d
       0.013484836 -0.07184141 -0.016091432 0.044141147
000100 25 5e c8 3d 09 48 cc 3d 6d dd d8 b8 60 ea 2b 3c
       0.09783582 0.09974677 -0.000103409264 0.010492891
000110 93 41 b5 3d 41 13 68 bc 07 ee e2 bd cf 77 69 3b
       0.08850398 -0.014164747 -0.11080556 0.003562439
000120 7f 4e 9b bd 39 d8 2e bd 3e 7c d7 bd 97 c9 0a be
       -0.07583331 -0.042686675 -0.10521744 -0.13553463
000130 9e 61 95 3c fd a5 8e bd 58 cc a1 3d 98 3d 46 3c
       0.018235024 -0.069652535 0.079003036 0.012099646
000140 52 14 f8 bc 25 84 85 3e 39 eb af bd 0f 31 25 3e
       -0.030283127 0.2607738 -0.08589787 0.16131996
000150 67 5e 71 bc 4c 3a 4f be 94 b3 e1 3b b5 2a f8 3d
       -0.01473198 -0.20237082 0.0068878625 0.12117521
000160 a1 e7 26 3e 34 06 98 bd 53 99 b4 bd c4 ce 89 be
       0.16299297 -0.07423058 -0.08818307 -0.26915562
000170 d5 d2 c5 3d 30 bf 9b bd 51 91 21 be 20 f5 d0 bb
       0.09659354 -0.076048255 -0.1577809 -0.0063768774
000180 a8 c6 8c be 1c 68 33 3e 13 7c 41 bc e8 09 d7 bd
       -0.27495313 0.17520183 -0.011809367 -0.10499936
000190 7a 41 e1 3d e3 7b 29 bc d4 66 b2 3d 18 3c 58 3e
       0.10998817 -0.010344478 0.08711019 0.21116674
0001a0 7e e4 f6 bd 15 82 2a bd cf fb db 3d 02 dc 81 bd
       -0.120553 -0.041627962 0.10741388 -0.06340791
0001b0 e5 cd ec 3d 4e be 91 bc 89 a9 b9 bd 0e f4 f5 3d
       0.11562709 -0.01779094 -0.090655394 0.1200944
0001c0 05 a5 7f bd ce b1 9c bc 61 cd 1d bd 9b 93 7a be
       -0.062413234 -0.019127753 -0.038525943 -0.2447037
0001d0 59 bb 23 3c 93 4f cc 3d 17 2c 37 3d 51 57 1c be
       0.009993398 0.09976115 0.04471978 -0.15267684
0001e0 e8 3a 1b bd 1e d9 02 3e 1f 64 9c 3d 36 ec 0d be
       -0.037897974 0.12778136 0.07636284 -0.13859639
0001f0 b7 08 8e be 1e 4a a9 bb 24 ba 31 3e 72 b6 81 bd
       -0.27741024 -0.005166306 0.17356163 -0.06333627
000200 e1 d0 a2 bc 6e ab ac 3d 87 c1 a4 bd 61 a5 24 3e
       -0.019874992 0.08431135 -0.08044725 0.16078712
000210 63 75 48 be 71 42 38 be ae 93 21 bd f1 4d 4e bd
       -0.1957603 -0.17994095 -0.03944748 -0.0503673
000220 af 4d 2d 3e b8 89 e1 bc 9e 59 0c 3d fb ca ec bd
       0.16924165 -0.02753149 0.034265153 -0.11562153
000230 24 f3 81 3d c3 05 1c be 43 1e a1 3d 37 9e ac bc
       0.063452035 -0.15236573 0.078671 -0.021071536
000240 5d 1b 6f be 40 4f 3b 3e 74 65 1c be 4a 88 0a 3e
       -0.23350282 0.1829195 -0.15273076 0.13528553
000250 22 56 d1 3d bf 28 65 be 01 1f ed 3d 7e 71 3e bc
       0.10221507 -0.22378825 0.11578179 -0.011623738
000260 08 1b a4 bd ec 01 1a 3c c5 93 25 bd 5d 5a d2 3d
       -0.08012968 0.009399872 -0.040424127 0.10271142
000270 bf a2 cc bd e7 e3 53 bd 0f a9 45 3c 77 73 11 bd
       -0.09991979 -0.051731016 0.0120642325 -0.035510506
000280 57 68 52 3d a2 d9 c6 bd 3f ca db bd ea d2 f2 bd
       0.051369037 -0.09709479 -0.10731935 -0.11856635
000290 13 a9 6e 3d 64 b4 54 bd 2d fa 20 bd 40 c3 ee 3c
       0.05826671 -0.051929846 -0.039301086 0.029145837
0002a0 bb 4a 4f bd 7e 95 84 3d 38 b5 9d bc 29 59 b6 3c
       -0.050608378 0.06473826 -0.01925145 0.022259312
0002b0 20 ee 08 3e 07 0f dc 3d a4 ca ab 3d 34 1c 34 bc
       0.13372087 0.10745054 0.0838826 -0.010993052
0002c0 9e 8f 0a 3d 7c bb 15 be 9b b8 91 3b e8 25 15 be
       0.03382837 -0.14622301 0.0044470555 -0.14565241
0002d0 7a cf 8d bd 3b 52 85 3d e4 bf 29 bd 96 6d 61 3e
       -0.06924339 0.06509825 -0.041442767 0.2201446
0002e0 ad c5 a9 bc ed 40 b8 3c 9c 8a ac 3d a7 4a 03 be
       -0.020724142 0.022491897 0.08424875 -0.12821446
0002f0 37 4c 06 bd 64 f4 29 bd c9 e5 c6 3a 3a 64 08 3e
       -0.032787528 -0.041492835 0.0015174682 0.13319483
000300 3e f0 b7 bd bf 3d 32 bd 8a fc 1d be e2 41 3c 3d
       -0.089813694 -0.043515917 -0.15428367 0.04596127
000310 79 fa 15 bd 03 b1 a8 bb 05 4c 4e 3d 9f 02 cc bc
       -0.036615822 -0.0051480546 0.050365467 -0.024903594
000320 52 76 f3 bb c6 3c e1 bd 59 1e a9 3d 9f b5 2b 3d
       -0.0074298764 -0.1099792 0.082577415 0.041921254
000330 8b ee 22 3e ca 90 84 3d 23 64 9b bd 24 10 32 be
       0.1591131 0.06472929 -0.07587459 -0.1738897
000340 dd 5a 3f be db 45 4b bd b5 9f 1a be aa 4f 78 3d
       -0.18687005 -0.049627166 -0.15099986 0.06062285
000350 55 b8 75 3d 88 15 f4 3c e7 60 1f 3c 95 36 15 be
       0.059990246 0.029795423 0.009727693 -0.14571603
000360 00 c1 f1 3d 84 b5 f7 3d 8b 88 ef 3d be 97 39 bd
       0.1180439 0.12095168 0.116959654 -0.04531073
000370 85 84 61 3d 14 c9 08 3e de 04 3e 3e 80 6f 26 bd
       0.05505802 0.13357955 0.18556544 -0.04063368
000380 39 2f dc bd 42 4c cb 3d b0 6c 8c 3e 4d 43 f2 bd
       -0.107511945 0.099266544 0.27426672 -0.11829243
000390 e2 d3 4f be 9a cb 01 be 84 f0 81 bc e8 db 95 3c
       -0.2029567 -0.12675324 -0.015861757 0.018293336
0003a0 7a 57 4c bd 1c ed 99 bd 1e c8 29 3d 45 ae 49 be
       -0.04988811 -0.07515928 0.041450612 -0.19695385
0003b0 bc 91 1a be c1 84 41 bd c3 21 fe 3c f0 eb 6e 3d
       -0.15094656 -0.047245745 0.031021958 0.058330476
0003c0 dd 12 a5 bd 7a d2 9b bd 44 1d e7 bd 58 90 41 bd
       -0.080602385 -0.076085046 -0.11284879 -0.047256798
0003d0 f2 c5 7e bc 75 cf 1d 3e 51 72 22 3e 34 56 cc bd
       -0.0155501235 0.1541117 0.15863921 -0.099773794
0003e0 3c 6e ea bd 82 ea b7 bd d7 54 5c 3d 92 a1 16 3d
       -0.11446807 -0.08980276 0.053791847 0.03677518
0003f0 ee da 3b be d7 06 75 3b 8e 3a ec 3d b6 cc ed bd
       -0.18345234 0.003738811 0.11534606 -0.11611311

conv2.bias f4 [16]
000000 27 61 02 3e 70 5c 66 bd b6 d3 27 bd ce 4d 87 3d
       0.12732373 -0.0562405 -0.040973388 0.06606637
000010 63 b4 15 3c 28 d4 ec 3d 6f dd 48 3d 63 32 7c bd
       0.009137246 0.11563903 0.0490393 -0.06157149
000020 a8 aa 11 bd 4b 52 91 bd ac 18 f9 3d 36 82 ac bd
       -0.03556314 -0.07095774 0.12162909 -0.08423273
000030 26 f7 14 3d e8 1b 40 bd 31 24 0a be 19 cc c3 3d
       0.03636851 -0.046901613 -0.13490368 0.09560413

fc1.weight f4 [120, 400]
000000 70 f0 0c bc 7b 39 7d 3d fb 95 97 3d e6 be 61 bd
       -0.008602247 0.061822396 0.074016534 -0.055113696
000010 35 e1 58 bc f0 db 99 bd 15 95 05 bd 61 31 2c 3d
       -0.013237287 -0.07512653 -0.03261288 0.04203928
000020 2d e8 97 3c b2 95 19 bd a1 53 5a 3a a9 73 4f 3d
       0.018543327 -0.037496276 0.0008328502 0.05064741
000030 42 90 f5 3c fd e4 fa 3c f6 85 43 bd ea 9c 69 3d
       0.029976014 0.030626768 -0.047735177 0.05703441
000040 2a 35 d7 3b 78 58 27 bc 14 54 57 3d f7 5d 90 bc
       0.006567617 -0.010213964 0.052570418 -0.01762293
000050 9a 68 29 3b fc b6 bf bb d9 f3 b4 3a 5e 2e 91 3c
       0.00258497 -0.005850671 0.0013805582 0.017722305
000060 f8 5d ae bd 09 09 e9 3c a3 41 b1 3d 5d c7 09 bd
       -0.08514017 0.028446691 0.08655097 -0.033637393
000070 33 24 44 3d f0 65 b4 3c c4 39 fc 3b 24 70 8a 3d
       0.047886085 0.022021264 0.007697316 0.067596704
000080 d7 4c 9a bd 77 d0 1c 3d ea c3 00 3c 50 d0 7f 3d
       -0.07534187 0.038284745 0.00785921 0.06245452
000090 e3 45 06 be 09 1b da 3b e9 c8 9a bd f7 30 1e bd
       -0.13112597 0.006656055 -0.07557852 -0.038620915
0000a0 dc a1 6a bd 06 18 a5 3d 39 c2 9d bc a6 2f 59 bd
       -0.057283267 0.08061223 -0.019257652 -0.053023957
0000b0 30 6f 8e 3c 1c e2 a0 3d 95 6a ce 3c 9e 25 a7 bd
       0.017387003 0.07855627 0.025197307 -0.08161472
0000c0 4a 3a e1 3c 84 5a 18 bd 8b f8 ae 3d 9e 61 0f 3d
       0.027493615 -0.037195697 0.085434996 0.035005204
0000d0 1e 18 d6 bc e3 52 ae 3d 6e 8e 03 ba b8 af e6 3d
       -0.026134547 0.08511903 -0.0005018477 0.112639844
0000e0 cd 40 0a be 14 ad b8 bd e3 8b 9d bd 92 e5 bb 3c
       -0.13501282 -0.09017387 -0.07692697 0.022936616
0000f0 84 38 87 bd d4 da 6e be d2 54 1d be f0 36 32 be
       -0.066025764 -0.23325664 -0.15364388 -0.1740377
000100 18 d1 cd 3c b2 fd c8 bd 09 1f bb bc a4 13 01 be
       0.025124118 -0.098140135 -0.022841947 -0.12605149
000110 64 51 3d be 9c d0 2d bd c6 65 b7 bd 8b 08 35 3d
       -0.1848808 -0.042435274 -0.089549586 0.0441976
000120 e7 aa 9b 3c c1 07 c3 bd d9 5d 40 bb 16 81 91 3d
       0.019002391 -0.09522963 -0.0029352813 0.07104699
000130 7e c3 04 bd 3f 9d de bd e4 6d 74 bd 31 2c df bc
       -0.032413 -0.10869836 -0.059675112 -0.027242752
000140 dc 11 0e be 38 fb 39 be 49 26 55 be 81 e8 7c bd
       -0.13874 -0.18162239 -0.20815386 -0.06174517
000150 d1 75 ef 3b 13 b9 29 be e1 38 40 3c 57 bf 38 3d
       0.007307746 -0.16574506 0.011732311 0.04510435
000160 67 78 6e bd ab 74 97 3d 5c 45 98 bd 0a 2a 2f bd
       -0.058220293 0.073952995 -0.07435104 -0.0427647
000170 74 15 cb 3d 3b 5f 12 bd 6d f7 99 3d d7 d5 a9 3d
       0.09916201 -0.03573535 0.07517896 0.0829274
000180 3e 8e bb 3d 6c c6 2b 3e 84 7a 3c bd 43 53 78 bd
       0.0915799 0.1677491 -0.046015278 -0.06062628
000190 d2 29 7d 3c 88 af 93 3d a7 8b 01 3d 23 8b cb bc
       0.015451865 0.07211214 0.031627323 -0.024846619
0001a0 ff 40 94 3c d8 98 56 bd 78 73 5e 3d 21 68 f4 bb
       0.018097399 -0.052391857 0.05430934 -0.007458702
0001b0 b1 72 27 3d 80 48 38 bd 75 98 c9 3c 82 3e bd 3d
       0.040880863 -0.044991016 0.02460883 0.09240438
0001c0 f1 84 dd 3b e3 f8 ea 3c 52 b6 77 3d 32 e5 1f be
       0.0067602326 0.028683132 0.06047661 -0.15614775
0001d0 de 54 7d bd 75 3f 06 be ba 8f 86 bd 07 02 0d 3e
       -0.061848514 -0.13110144 -0.065703824 0.13770305
0001e0 29 ec 24 bd 5b ad ef bd 77 a1 09 3d 38 d6 52 bd
       -0.040264282 -0.11702987 0.03360125 -0.051473826
0001f0 d9 31 99 3d 44 7a f6 bd ab f0 24 3d 83 2e 1a bd
       0.07480211 -0.12035039 0.04026858 -0.037642013
000200 39 a8 10 3e 44 df 4d 3d 83 51 14 be 47 52 07 be
       0.14126672 0.05026175 -0.14484219 -0.1321498
000210 11 c0 17 be 66 77 d2 3c 62 63 b1 3c c4 ed 19 be
       -0.14819361 0.0256917 0.021653835 -0.15032107
000220 b8 90 ca bd fb b9 df bd 5e 9b f5 bd fe e9 53 3d
       -0.09890884 -0.10924145 -0.119925246 0.051736824
000230 01 e1 e4 bd 01 3b 32 be 2d b9 d4 bd 82 d2 c8 bd
       -0.111757286 -0.1740532 -0.10386882 -0.09805776
000240 34 88 36 bc 29 65 d8 bd c4 60 49 bd 97 db 73 3e
       -0.011140872 -0.1056617 -0.04916455 0.23814236
000250 a5 d1 5b 3c 6b d6 22 bc 4e 59 df bd f6 32 55 3d
       0.013416682 -0.009938817 -0.109057054 0.052050553
000260 f9 97 e7 bb 8e c7 fe bc da 31 dd bd c5 e4 f7 bb
       -0.007067677 -0.031101014 -0.10800524 -0.0075651133
000270 7b 48 bd 3d 53 7b b6 bc fa 78 8d 3d 4a 46 86 bd
       0.0924234 -0.022275602 0.0690784 -0.06556375
000280 d0 5e 4d bd 75 c7 49 ba 4a bd 28 3d 85 77 52 bd
       -0.05013925 -0.0007697263 0.041196145 -0.051383514
000290 68 73 98 3d b1 9e 92 bd 70 80 80 bb f5 9a b2 bd
       0.07443887 -0.07159174 -0.003921561 -0.08720962
0002a0 5b 48 0c bd bc 59 33 3c 5e 67 17 be 67 35 79 bc
       -0.03424869 0.010946687 -0.14785525 -0.015210486
0002b0 e9 28 03 3e ec cb 45 3e 30 3a a7 bd e2 7e 97 bd
       0.12808575 0.19316071 -0.08165395 -0.07397248
0002c0 da 59 57 be 8c ae 21 bc 51 ec 04 be 26 d3 ba bc
       -0.2103037 -0.009868275 -0.12980773 -0.022805762
0002d0 af 3e 42 be cb c8 b2 bd e5 5a d7 bd 09 00 e0 bd
       -0.18969224 -0.087297045 -0.10515384 -0.10937507
0002e0 94 f0 ed bb a9 e6 dd bd c1 13 cf bd 3e 5f 54 be
       -0.007261345 -0.108350106 -0.1011119 -0.20739457
0002f0 ef e1 b0 bd af 00 fd 3c e5 62 ca bd 18 1c 70 bd
       -0.086368434 0.030884115 -0.09882144 -0.058620542
000300 5e 9e 0c be da 5f 87 bd e5 08 f1 bc d5 6a 17 bd
       -0.13732287 -0.06610079 -0.029423187 -0.036967117
000310 f0 1c ca 3d 84 b4 78 bd 5d 2b 91 bd 21 8c 80 bd
       0.09868801 -0.060719028 -0.07088349 -0.062767275
000320 62 ae 34 3d 34 67 ab bd 59 29 2c 3d 33 73 23 3d
       0.044111617 -0.08369294 0.04203162 0.039904784
000330 0b 12 dc 3d b3 19 80 bd 3a 16 e2 bb 90 e6 a3 3d
       0.10745629 -0.06254902 -0.0068996223 0.08002961
000340 f7 97 6b 3d 40 53 9a bd 46 4e b5 3d 74 d6 a1 bd
       0.05751797 -0.0753541 0.0885282 -0.07902232
000350 be 34 9b 3c ae a0 58 bd 46 71 01 3e 31 62 8f bd
       0.018946048 -0.05288761 0.12640867 -0.070011504
000360 c6 bf 1a be 75 1a 2f be 0a c2 39 be 99 96 db 3d
       -0.15112218 -0.17099936 -0.18140426 0.107220836
000370 7d 32 23 bd 77 1e 13 bc 38 13 c1 3d 46 8b b3 3d
       -0.03984307 -0.008979431 0.09427494 0.08766799
000380 7a f3 a7 ba ee 59 66 bd 5f 1f c7 3c 77 f0 8a 3d
       -0.001281365 -0.056238107 0.024306951 0.06784146
000390 25 47 85 bd 91 79 ae 3d 36 af c4 3d 98 8b 0e be
       -0.0650771 0.08519281 0.09603731 -0.13920438
0003a0 89 80 8e 3d 11 a9 aa bc c2 5d 1d bc c5 fd 29 bd
       0.0695811 -0.02083257 -0.009604873 -0.04150178
0003b0 ed 8a e4 bd f8 7f c9 3d e9 0b a9 bd d3 ba 8f 3b
       -0.111593105 0.09838861 -0.08254225 0.004386285
0003c0 cd 5e 38 3c f4 e7 d2 3c 78 22 11 3d 93 f5 6d bb
       0.011253071 0.02574537 0.035433263 -0.0036309704
0003d0 4f f6 0a 3e 28 25 a7 3d 5d 63 08 3d 1e be 57 3c
       0.13570522 0.08161384 0.033297885 0.013167886
0003e0 bf 91 a8 3b dc 57 c6 bc 8b f6 00 3b 8b c0 fb bb
       0.0051443274 -0.024211816 0.00196782 -0.007682865
0003f0 bd 57 c5 3d 23 04 c3 3d 52 25 21 3e f5 c4 01 be
       0.096358754 0.095222734 0.15736893 -0.1267279

fc1.bias f4 [120]
000000 f0 fa dd 3d 06 1a e6 3d 8c 11 9e 3d 55 c8 5d 3d
       0.10838878 0.11235432 0.077181906 0.05414613
000010 e7 30 35 3d 73 d2 5d bd 6a 48 88 bd 32 43 5c bc
       0.04423609 -0.05415578 -0.06654437 -0.013443755
000020 02 cd 82 bc 47 2b 3b 3d 02 68 10 bd 84 cb 38 bd
       -0.015966896 0.04569557 -0.03525544 -0.045115963
000030 89 06 24 3d 8b 38 ca 3d 20 a9 11 bd 3f f0 1b 3d
       0.040045295 0.09874066 -0.03556168 0.038070913
000040 1b 69 e1 3d 35 73 90 3b dc 34 87 3d c8 c3 d0 3c
       0.110063754 0.004408265 0.06601879 0.02548398
000050 3b a4 b9 bc 9b b6 0e 3d 9f 97 24 3d 40 c9 d0 3d
       -0.022661319 0.034842115 0.04018366 0.101946354
000060 63 66 1c 3e c1 9c ed 3d 19 e0 e1 3d c4 90 ff bc
       0.15273432 0.11602164 0.11029071 -0.03119696
000070 53 bf 7b bd 31 b3 8b bc 0f 5a bc 3a cf 19 b1 3c
       -0.061461758 -0.017053219 0.0014370101 0.021618752
000080 f6 70 65 bd 33 b2 3a bd bd db 15 3d 19 86 15 3d
       -0.05601593 -0.0455801 0.036586512 0.03650484
000090 29 dd ae 3d 35 cf 00 3b 59 34 b3 bd b1 90 d5 3d
       0.08538277 0.0019654755 -0.08750219 0.10427988
0000a0 17 cf b3 bd a1 e6 fe 3c f8 0e 82 bd e1 56 81 3c
       -0.08779734 0.031115832 -0.06350511 0.015788497
0000b0 38 06 01 3d 88 e8 8e bd 36 00 71 bd 82 b1 15 bd
       0.03150007 -0.069779456 -0.05883809 -0.036546238
0000c0 5c 89 80 bd 33 1d b9 bb 05 41 57 3d 36 e7 04 3c
       -0.06276199 -0.005649233 0.05255224 0.008111766
0000d0 58 2e 6b bd 1f 82 85 bb 6a 3f ca 3d 36 0a 9c 3d
       -0.057417244 -0.0040743495 0.098753765 0.07619135
0000e0 97 b1 70 bd b1 80 f9 3c 13 4f 85 bd 31 44 31 3e
       -0.058763113 0.030456873 -0.06509223 0.17311169
0000f0 a9 a8 25 be fd d8 a4 ba c1 1c 4e 3d 04 e4 59 bc
       -0.1617762 -0.0012576875 0.05032039 -0.013298992
000100 9e f5 97 bc f7 82 1f bb 42 8b 86 3b 7f d8 4b bb
       -0.018549737 -0.0024339536 0.0041059563 -0.0031104384
000110 c9 44 c0 3c c5 ed 8f 3b f0 c8 ce 3c fd 96 55 bd
       0.0234703 0.004392358 0.025242299 -0.052145947
000120 4d a4 bc ba 25 21 b9 bc d7 b9 ad bd 94 36 ac 3d
       -0.0014392227 -0.022598812 -0.08482712 0.084088475
000130 35 41 e3 bc e9 df a2 bd 7a 6b 89 3d 5d bb 6b 3d
       -0.027741054 -0.07952864 0.06709953 0.05755173
000140 ba aa 19 bc 98 bd dd bc c9 e4 57 bd 05 92 80 bb
       -0.009379083 -0.027067944 -0.05270842 -0.003923657
000150 d6 4d 6d bd fa 2b 4a bd 86 f2 a7 bb f8 0c 2a 3e
       -0.05793556 -0.049358346 -0.0051253466 0.1660651
000160 da be 59 bd be 06 e4 3d 33 aa 95 3d f1 fa 23 bd
       -0.053160526 0.111340985 0.073078535 -0.04003424
000170 81 62 cb 3c d0 7b 62 bd 78 17 89 bd af 34 1d bd
       0.024827244 -0.055293858 -0.066939294 -0.03838032
000180 32 e5 de 3c d2 0e ad bd 6c b4 8e bc 9d 3e 1d bc
       0.027208898 -0.084500924 -0.017420016 -0.009597448
000190 3a e8 7a bd fd b4 9c 3c 75 ba f0 3d 2d 95 70 bd
       -0.061256625 0.01912927 0.11754314 -0.058736015
0001a0 1e 58 b1 3d bd a0 2f 3d c7 ac 36 bd a7 45 08 bd
       0.08659385 0.0428779 -0.044598367 -0.03326955
0001b0 d7 8b bf 3c 4e a1 c6 3c e7 4e f4 3c 51 4b d7 bd
       0.02338211 0.024246838 0.02982278 -0.10512412
0001c0 ee 7f 2f 3d 38 30 c1 bc b6 b0 88 bc c2 b5 18 bd
       0.042846613 -0.023582563 -0.016685825 -0.037282713
0001d0 f5 ee f7 bc 1d 0f 74 bc 2d 8c e1 bc c2 f5 82 3d
       -0.03026531 -0.014896181 -0.027532661 0.06394531

fc2.weight f4 [84, 120]
000000 bc 69 99 3d 51 26 44 bc 9f 79 fe 3d 86 75 96 bd
       0.0749087 -0.011972026 0.12425541 -0.073466346
000010 40 fc e3 bc b3 f5 2e 3e bf bb 12 bd 88 80 67 bc
       -0.027830243 0.17085914 -0.03582358 -0.014129765
000020 54 be ba bd c1 ed 01 3e 79 84 d0 3d d8 ac 19 bd
       -0.091183335 0.12688352 0.10181517 -0.037518352
000030 0e 15 b7 3d 10 c9 29 be 10 31 8b bc 6e d4 d0 bc
       0.08939563 -0.16580606 -0.016991168 -0.02549192
000040 99 8f d6 bd d0 78 23 3e 80 92 5e 3e ce 15 50 be
       -0.10476608 0.15964055 0.21735573 -0.20320818
000050 81 d0 b3 bd 5d 15 f7 3b 5c d4 be 3d 78 c2 64 3d
       -0.08780003 0.0075403885 0.09317848 0.055849522
000060 94 94 b2 bb 40 ae f6 3d 71 e6 b5 bd 04 d4 f7 3c
       -0.005449841 0.12044954 -0.08881844 0.030252464
000070 be 5b 71 bd 4b c9 ca 3d 05 f3 ac bd 21 50 1e 3d
       -0.058925383 0.09901675 -0.0844479 0.038650636
000080 80 aa a4 ba 6e eb 2d 3d f3 f2 f2 3d 1c a6 95 3d
       -0.001256302 0.04246085 0.11862745 0.073070735
000090 7a 62 0e 3e 68 24 86 bd ce d4 aa 3d 9c 4a 63 3c
       0.13904753 -0.06549913 0.083413705 0.013872769
0000a0 f1 4d 48 bd b1 16 50 3e de 7d 82 bd 8b a0 76 bd
       -0.048902456 0.20321156 -0.063716635 -0.0602117
0000b0 74 43 91 3d f1 4f f2 3d a6 82 21 bd 81 b7 4b bc
       0.07092944 0.11831654 -0.039431237 -0.012433887
0000c0 18 a8 88 bd e5 a7 10 3d 2a fd 12 bb 96 29 06 be
       -0.06672686 0.035316367 -0.002242873 -0.13101801
0000d0 ef ba 30 3d dd 31 e0 bc c0 ec e2 3d 7b 73 43 be
       0.043147024 -0.027367527 0.11080313 -0.19087021
0000e0 b3 c5 2a bc aa ff 92 bc 31 57 9b bd 3d 62 0f 3e
       -0.010423112 -0.017944176 -0.0758499 0.14002319
0000f0 ef dc 0b be 77 78 55 3c cc 80 ac bd ed 6f b8 3d
       -0.13658498 0.013029209 -0.084230036 0.09005723
000100 53 fc 3c 3d a3 e0 65 3d 7c 73 10 3d 14 90 8d 3c
       0.046139073 0.056122433 0.035266384 0.017280616
000110 da 69 58 bd e6 20 9a bd 57 b2 f6 3d 57 31 9e bd
       -0.052835323 -0.07525806 0.120457344 -0.077242546
000120 5c 79 87 bd 12 31 b8 bd eb d0 92 bd f5 1a 89 bd
       -0.06614944 -0.089937344 -0.07168754 -0.06694595
000130 d1 b8 85 bd 4a 73 81 be ff d7 43 3d 47 d4 e3 3d
       -0.065293916 -0.2528327 0.04781341 0.11124473
000140 92 f0 a3 3d a0 30 77 3c 45 e0 b2 3b da a0 13 bc
       0.080048695 0.015087277 0.005458864 -0.009010518
000150 38 4b 81 3d de 10 a9 bd 0a 16 b4 3d 34 d4 24 bd
       0.06313175 -0.0825517 0.08793266 -0.040241435
000160 1c 87 a5 bc 68 79 c5 3d 75 f7 ce bd 6a ca f8 3c
       -0.020206027 0.09642297 -0.101057924 0.030369956
000170 3e 4c 4b 3b 40 43 76 3d 67 20 00 bd 39 86 de 3c
       0.0031020786 0.06012273 -0.0312809 0.027163612
000180 d5 16 8d bd 53 90 83 bd cc 25 13 3d f4 20 81 3d
       -0.068891205 -0.06424012 0.035924718 0.063051134
000190 06 e8 9c 3d 66 28 7b bd 9b 72 04 be 9f 8c 07 bd
       0.076614425 -0.061317824 -0.12934344 -0.03309309
0001a0 44 ab 7b 3e 61 44 7c bd e4 a3 a2 bd 89 13 c4 bc
       0.24577051 -0.06158865 -0.07941416 -0.023935096
0001b0 8f 80 ba 3c d4 4e 36 3d e3 bc ae bd 94 9d ec 3b
       0.02276638 0.04450877 -0.08532121 0.007220933
0001c0 b1 f8 48 3d 04 0d 04 bd 43 b1 46 bd ff bd bb bd
       0.049065296 -0.032238975 -0.048508894 -0.09167098
0001d0 26 a2 2c 3e f0 6d ca 3d 63 9b 36 3d 31 25 74 3e
       0.1685873 0.0988425 0.044581782 0.23842312
0001e0 ba f0 c8 3c cd ae 06 bd ef d5 c2 3d 20 76 30 3d
       0.02452885 -0.032881547 0.09513461 0.043081403
0001f0 1b 71 74 bd a3 28 a1 3d 9b fa 17 be 05 48 6b 3d
       -0.05967818 0.07869079 -0.14841692 0.05744173
000200 b9 d9 37 3d 9e 0a 29 bb 9e 54 3e bb e8 10 7d bd
       0.04488537 -0.0025793682 -0.0029042135 -0.0617837
000210 b8 da eb 3d f9 68 31 3e 6e b4 0a bc 3b 0d 86 bd
       0.11516327 0.173252 -0.008465869 -0.06545492
000220 c0 94 bc 3d 39 b7 af 3d 41 cb 78 3c ff a7 90 3d
       0.09208059 0.08579869 0.015185178 0.07063293
000230 97 ec 7d 3d 3e 51 49 bd 66 e9 16 bd f1 63 45 bc
       0.061993208 -0.049149744 -0.03684368 -0.012047754
000240 2b e0 a1 3d 01 8c 50 3e 10 d3 11 3e 43 fb a1 3d
       0.07904085 0.20365907 0.1424067 0.079092525
000250 11 23 82 3d 9f c7 72 3d 48 ab ae 3b c5 79 a5 bb
       0.06354345 0.059272405 0.005330477 -0.0050499164
000260 9d a1 a2 3d d4 b5 85 bd 33 4e b5 bd 07 04 bc ba
       0.079409815 -0.065288216 -0.08852806 -0.0014344462
000270 76 4b a1 3d 64 af 77 3d 5a ea a4 3d 91 6e 33 3c
       0.07875721 0.06047 0.080525115 0.010951654
000280 b9 82 90 3d 5e 4d c8 3d d2 b9 61 3d bc f5 d6 bc
       0.07056183 0.097803816 0.055108853 -0.026240222
000290 5c 60 92 3e 31 5b 31 3d 26 a7 54 bd fd 12 87 bd
       0.2858914 0.043299858 -0.051917218 -0.065954186
0002a0 80 2c c2 3d 11 14 f5 bc af 26 96 3d 83 10 26 3e
       0.09481144 -0.029916795 0.07331597 0.16217236
0002b0 80 13 97 3d 8f 41 d4 bc ce 9a 22 bd 82 f2 32 3d
       0.07376766 -0.025910167 -0.039698415 0.043688305
0002c0 b6 7c 97 bd 37 5c ac bb be 55 a4 bc 24 c5 14 bd
       -0.073968336 -0.0052600163 -0.020060416 -0.03632082
0002d0 bb a4 8f be c4 54 ce bd e4 a5 c4 3d e7 16 00 3d
       -0.28055367 -0.100747615 0.096019536 0.03127184
0002e0 fe 4f 8a 3d 3c d5 8f 3d 02 a9 bc bb 91 4d 97 bd
       0.067535385 0.07023093 -0.005757452 -0.073878415
0002f0 18 d1 8a 3d 81 83 bd 3d e8 91 85 3d 13 52 fc bb
       0.06778163 0.09253598 0.0652197 -0.0077002137
000300 41 b9 50 bd c4 b1 c4 3c de bd d4 3d f7 17 84 3d
       -0.050957922 0.024010547 0.10387777 0.064498834
000310 8e 33 d0 3d 0e 7f 9c 3d 49 90 b2 3d 13 d8 16 be
       0.10166083 0.07641421 0.087189265 -0.14730863
000320 96 3e d2 bd c2 1f 74 bd c4 9a 7e bd f7 d0 1c 3d
       -0.102658436 -0.0596006 -0.062159315 0.038285222
000330 3b 5d a0 bd 74 95 14 3c 1c ce eb 3c ab 93 5d 3e
       -0.07830282 0.0090688355 0.028784804 0.21638362
000340 10 f3 d1 bd 5d 89 3f 3e 5a e5 69 3e 5e 07 cf bd
       -0.102514386 0.18704744 0.22841397 -0.10108827
000350 d3 af 43 be cb 74 a8 3d 30 bb 54 3d b6 05 19 be
       -0.1911004 0.082254015 0.05193633 -0.14943585
000360 8d d1 ba 3c 2c 30 a3 ba a7 66 c0 bd 64 d8 9a bd
       0.022805 -0.001245027 -0.093945794 -0.075608045
000370 7e e8 b4 bd cd 7f 26 3d df a1 42 3c 46 60 e7 3c
       -0.08833407 0.040649224 0.011879413 0.028244149
000380 73 b6 4f 3e 83 8b ec bc 37 83 b7 bc 20 1a e8 bd
       0.20284443 -0.028875118 -0.022401435 -0.11333108
000390 19 38 9a bd 28 28 32 be 68 96 bb 3b 0a ea 59 bc
       -0.07530231 -0.17398131 0.005724717 -0.013300428
0003a0 74 14 89 3d 00 05 84 bd aa 0d 6a bd 9f a3 7a bd
       0.06693354 -0.06446266 -0.057141937 -0.061191197
0003b0 85 98 25 3d ae 81 97 3d 4c ec 8b bd ac 27 5c bd
       0.040428657 0.07397781 -0.068321794 -0.05374877
0003c0 f9 b1 c9 bd 7d 5d fd bd 62 da 40 be 9e c3 59 3c
       -0.09848399 -0.12371347 -0.18833306 0.013291268
0003d0 f9 29 a1 bd 2b 26 46 3d 3b f2 3b bb b4 f2 03 3d
       -0.07869334 0.048376244 -0.0028678316 0.03221388
0003e0 75 31 ac bd 9b a9 6a bd 42 17 0c bd 31 b3 93 bb
       -0.08407871 -0.057290655 -0.034201868 -0.0045074453
0003f0 f4 e2 86 bc be ab 92 3d 1f 5e 43 bd f7 60 56 3d
       -0.016465642 0.071616635 -0.047697183 0.052338567

fc2.bias f4 [84]
000000 0a a5 c7 bd 78 aa 03 3e 16 e1 2d 3d 54 4a 96 bc
       -0.097482756 0.12857997 0.042450987 -0.01834599
000010 8e 9e 21 3e 00 db 89 bc 80 e5 21 bd d9 2f 03 3e
       0.1578314 -0.01682806 -0.03952551 0.12811221
000020 1d be 9e bb 5c 24 2a bd 88 13 ad bc d1 b2 be 3d
       -0.0048444406 -0.04153858 -0.021127477 0.0931145
000030 aa 80 c8 3d 3d 50 1a 3d 10 a5 6a 3c bb 08 df 3d
       0.09790166 0.037674177 0.0143215805 0.10890337
000040 be 93 5d bd c7 86 65 bc 9a 10 40 bd 17 8d a3 3d
       -0.054095976 -0.014009184 -0.046890832 0.07985895
000050 53 92 75 3d 37 9e 82 bd 90 ff 1b 3e aa 95 9a bd
       0.059954 -0.06377833 0.15234208 -0.075480774
000060 37 80 46 3d 68 17 fa 3c 19 a6 0e 3e c4 b7 01 3e
       0.04846212 0.03052874 0.13930549 0.12667757
000070 53 e6 8e 3d 59 42 88 3d 9c 7b 31 3e 82 50 a8 bd
       0.069775246 0.0665328 0.1733231 -0.08218481
000080 e6 c2 78 bd 7d 2f ef 3d 09 b3 8e 3c 18 ba 8e 3d
       -0.060732745 0.116789795 0.017419355 0.06969088
000090 c6 ac ad 3d 71 13 f3 3d 0d a6 c7 bd 61 b8 ef 3d
       0.084802195 0.118689425 -0.097484685 0.11705089
0000a0 53 a1 ea 3c 3f 22 fe 3c 5c ef d9 bd 24 41 25 be
       0.028641379 0.03102219 -0.10641357 -0.1613813
0000b0 fb 4b 20 3e 37 d8 2f 3b 95 28 bc bd d7 13 b4 bd
       0.15653984 0.0026831755 -0.09187428 -0.08792847
0000c0 63 00 9a 3d bb 69 36 bd 64 da a0 bc 78 43 8d 3b
       0.07519605 -0.044534426 -0.019635387 0.0043110214
0000d0 a8 82 93 3d 02 ef d5 bd 49 1c 33 3e 94 b6 68 3c
       0.07202655 -0.10445978 0.17491259 0.014203686
0000e0 44 5d d0 3d 8f 88 0d 3d b2 13 f9 3c 76 57 88 bc
       0.10174039 0.03455406 0.0304049 -0.016643267
0000f0 57 d3 8c bd a0 1b 57 bd 5c 4f c6 bd 2d 18 af 3c
       -0.068762474 -0.05251658 -0.09683105 0.021373833
000100 d4 76 96 3d 9c 6b f2 bd 7f b4 77 bc 34 8e 67 3d
       0.073468834 -0.11836931 -0.015118717 0.0565321
000110 e6 ad 8d bd 18 ab 91 bd af 4a dc 3d 52 d6 6e bd
       -0.06917934 -0.07112712 0.10756432 -0.05830986
000120 dd 03 10 bd 85 a2 03 3e 46 ac cd 3d fb fa 80 3d
       -0.035159934 0.12854965 0.10042624 0.06297871
000130 ec c9 49 3d 28 4e f5 ba 94 9a ee bd 80 25 60 bc
       0.049264833 -0.0018715309 -0.11650577 -0.013680816
000140 fc e0 2a 3c 72 bd 5d bd 6d 2c b1 3c a1 bb 6e 3d
       0.010429617 -0.054135747 0.02162763 0.058284406

fc3.weight f4 [4, 84]
000000 4e da 4a be 55 0b aa 3d b0 84 ea bd 77 0b 01 be
       -0.19809839 0.08302943 -0.114510894 -0.1260203
000010 12 22 15 3e 53 e3 f9 3d 8b 9d 34 3c 1d 5e 66 be
       0.14563778 0.12201562 0.011023889 -0.22496839
000020 9c 31 07 be b5 31 32 bd b2 8a 9f bd cb a4 45 be
       -0.13202518 -0.043504436 -0.07790126 -0.19301145
000030 97 24 2e bd 61 14 dc bd 76 83 76 be 66 90 90 3d
       -0.042515364 -0.107460745 -0.24073586 0.07058792
000040 bb 12 a4 be ae 42 91 be 5a d6 35 3e 1b ea 7f 3e
       -0.3204554 -0.28371185 0.1775755 0.24991648
000050 c8 49 7a 3e 28 19 1c bc e4 b9 8a be 8d 05 2a be
       0.24442208 -0.009527482 -0.27094948 -0.1660368
000060 fa 61 7f 3d 23 b6 33 bd 6d 84 d1 3d 21 49 9b be
       0.062349297 -0.04387487 0.10230336 -0.3032923
000070 10 77 e8 bd 20 ea 44 be d0 28 98 3d 85 cc 16 bd
       -0.11350834 -0.19229937 0.07429659 -0.03681614
000080 3f 67 3d bd b3 84 cf bd 6b d7 d8 bd ef 59 3c 3e
       -0.04624104 -0.10132732 -0.10587963 0.18393682
000090 bc 63 87 3e 0c e3 79 be d2 db ce 3d 9f 42 41 3e
       0.2644328 -0.24403018 0.10100521 0.1887307
0000a0 4c 4e cb 3d b8 ee 7a 3d bc 87 90 3c 0c bf 43 be
       0.09927043 0.061262816 0.017642848 -0.19115847
0000b0 69 a1 82 be 72 94 fc bc 07 4e a2 bc fb ed 5e be
       -0.2551377 -0.030832503 -0.019812597 -0.2177047
0000c0 20 4e 61 be 7d 6e 60 bd f8 14 3f be 80 28 16 be
       -0.22002459 -0.05479287 -0.18660343 -0.14663887
0000d0 63 90 8d be 0f 52 25 bd 10 98 1c 3e ce ad 00 be
       -0.2764922 -0.04036146 0.15292382 -0.12566301
0000e0 63 af c0 be ea 72 00 be 32 36 8e bd d7 bd ca bc
       -0.3763381 -0.12543836 -0.06943931 -0.024748726
0000f0 1e 4d 0c 3e 37 bd 01 3e 69 60 ec bd 45 51 6a be
       0.13701293 0.12669836 -0.11541826 -0.22882564
000100 5c c4 12 3e bd 63 8e 3d 7e 2f b2 3d b8 3e c3 3d
       0.14332718 0.06952617 0.08700465 0.09533447
000110 e1 b2 9e bc f3 42 5b bd ed e6 7a be 0e 4f a2 be
       -0.019372405 -0.053530645 -0.24502154 -0.3170094
000120 52 45 6b bc f8 df 11 3e b7 3b 9d bd f3 3d a8 3d
       -0.014359789 0.14245594 -0.07677405 0.08214941
000130 8b b5 83 bd e3 0e 7c be 3b ac 23 be 1f 68 72 be
       -0.06431111 -0.24615054 -0.1598367 -0.23672532
000140 72 ab bf be 46 78 1d 3d 2d 8d 05 3c 56 eb 68 bd
       -0.3743549 0.03844478 0.008151335 -0.05686506
000150 ba 78 0f be 71 48 42 be c0 fa b8 bd 47 2c b0 bd
       -0.14010897 -0.18972947 -0.09032202 -0.08602195
000160 32 1e 46 be fd 2e a0 3d ef 40 64 3d 28 b1 22 be
       -0.19347456 0.07821462 0.055725988 -0.15887892
000170 fe 26 4b 3e 8c 52 a4 be e7 91 35 bd 29 cd 14 be
       0.19839093 -0.32094228 -0.044328596 -0.14531387
000180 d1 f0 13 be c2 94 3d be 9e cf a7 bd 5e 7e 82 be
       -0.14447333 -0.18513778 -0.08193897 -0.25487036
000190 7c d0 5b 3d 7e 64 f8 3d 81 17 5f 3d b5 f6 8c be
       0.053665623 0.12128542 0.054465774 -0.27531973
0001a0 30 4e 4a be c0 4d 7e 3c 7f 60 55 be 3b e2 0d be
       -0.19756389 0.015521467 -0.20837592 -0.13855831
0001b0 0b 17 b1 bd 16 98 0a 3e 8a 61 3d be 25 2c 98 3d
       -0.08646973 0.13534579 -0.1849424 0.07430295
0001c0 c6 66 8c bb 4f 17 d8 bd 96 9c cf bd 16 1e b3 bd
       -0.0042847125 -0.10551321 -0.10137288 -0.08745973
0001d0 21 56 3d bd 79 16 40 be 41 61 50 bd 9e c4 0b be
       -0.046224717 -0.18758573 -0.050874 -0.13649222
0001e0 a2 05 89 be e0 28 21 3e 0f ab 36 3e 50 24 a3 be
       -0.2676211 0.15738249 0.17838691 -0.31863642
0001f0 6d 4e 97 3c 70 d1 0c 3e c0 41 ab 3d da 82 e2 bd
       0.018470014 0.13751769 0.0836215 -0.11060114
000200 cc e7 fc 3c ab 61 04 bc ca a0 15 bd 7b 26 3b bd
       0.030872248 -0.0080799265 -0.036530294 -0.045690995
000210 6a dd db 3d 4c e1 e5 3c d7 d7 19 bd f9 7d 11 3e
       0.10735591 0.028061531 -0.037559357 0.14208211
000220 ff c9 08 bd 90 93 a3 3d 70 c7 92 be 60 ba e9 3d
       -0.033395763 0.0798713 -0.28667784 0.11412501
000230 14 64 98 3d 69 d7 e9 3d e6 9b dc bc a5 fc be 3d
       0.074409634 0.11418039 -0.026929807 0.09325532
000240 5c b6 37 3d a3 32 0d 3e 4d b3 1f 3e 98 94 be 3c
       0.044851646 0.13788848 0.15595742 0.023264214
000250 5c f3 00 be 82 ed 93 bd f7 28 04 bc 9c a0 12 3e
       -0.12592834 -0.072230354 -0.008066407 0.1431908
000260 9a d4 e7 3c 3c 52 72 bc 73 8e 54 3d 0a 5b e5 3d
       0.028299619 -0.014790114 0.051893663 0.11199005
000270 22 10 24 be 23 10 e7 bd 39 8e 87 3d e1 95 20 3d
       -0.16021779 -0.11282375 0.06618924 0.039205436
000280 20 21 49 3d e5 08 d8 bd 17 ad 22 3e a0 81 bd bd
       0.049103856 -0.105485715 0.15886341 -0.0925324
000290 df 54 53 3d 9b 57 0d 3e ca 71 25 3e 87 98 1d 3d
       0.05159461 0.1380295 0.16156688 0.03847554
0002a0 2a 21 45 3e f4 b1 21 3e a8 86 39 3e 0a cb 94 bb
       0.19250932 0.1579054 0.18117774 -0.0045408057
0002b0 90 f1 a1 3b cd 09 1c be dc 6b b9 bd 46 1e 9e 3d
       0.0049421266 -0.15238114 -0.09053776 0.07720618
0002c0 17 8f 03 bd ff 4e 92 3e 8b ac bd 3b b9 18 11 3e
       -0.032118883 0.28575894 0.005788391 0.14169587
0002d0 01 e3 72 be 40 77 c3 3d 7e 1a 87 3d d8 f2 99 3d
       -0.23719408 0.095442295 0.0659685 0.07517022
0002e0 39 d9 25 be b6 38 92 bd 9a 34 3c be e0 0c 31 3e
       -0.16196145 -0.07139723 -0.18379441 0.17290068
0002f0 36 93 7d 3d 9f fd 74 3d 61 92 8b 3e 60 86 a1 bd
       0.06190797 0.059812184 0.27260116 -0.07886958
000300 85 59 cf bd 4b 82 17 be 0a bd 58 3e ce 49 d8 bd
       -0.10124496 -0.14795797 0.21165863 -0.10560952
000310 6a e9 55 3c 33 ec 78 be 85 d0 29 be 17 b8 84 3c
       0.0130561385 -0.24308853 -0.1658345 0.016201062
000320 2f d9 98 bd 9a 26 2b 3e cc 31 db bc 89 df 45 be
       -0.074632995 0.16713944 -0.026757143 -0.19323553
000330 61 6a ce ba 0f 51 c0 bd cf 2c 91 3b df 24 61 bd
       -0.0015748256 -0.09390461 0.0044303904 -0.054966804
000340 f9 59 04 be 79 7c 1b bd 84 91 0e 3d 94 ab c3 3d
       -0.12924947 -0.037960503 0.034806743 0.0955421
000350 e8 1e cc bd 30 f7 47 bd ee d0 4a bd 56 f2 7b 3d
       -0.099668324 -0.04881972 -0.049515657 0.061510406
000360 6e cc 97 3d 58 86 20 3c 3c f1 2c bd 50 e4 02 3e
       0.07412039 0.009797655 -0.042222247 0.12782407
000370 e8 9e 6b be 4f 68 a8 3d 70 16 2e be 0d 58 76 bd
       -0.23009837 0.0822302 -0.17000747 -0.060142566
000380 f8 2f 30 3e 93 85 b9 3d 7c 7c 09 3e 33 ee d7 bd
       0.17205799 0.090586804 0.13426393 -0.1054348
000390 39 7d 08 3d fb 24 23 be e5 59 05 3b 54 f0 06 3e
       0.033322547 -0.15932076 0.002034777 0.13177615
0003a0 51 d5 3b be e7 3e db bd b2 3e d5 3c c0 fc 5c be
       -0.18343093 -0.10705357 0.026030872 -0.21580791
0003b0 01 6a 45 3d 26 9c 53 bd 1c f6 0c 3e ad a4 8b bd
       0.048196796 -0.051662587 0.13765758 -0.06818519
0003c0 9e 9f 7c 3e 50 53 01 3e 63 74 26 be 48 e7 92 be
       0.24670264 0.12629437 -0.16255336 -0.2869208
0003d0 4e 59 81 bc 6e 9f 2d 3e 3a 10 f3 3c ff b0 35 3d
       -0.015789654 0.16955349 0.029670823 0.04435825
0003e0 ed 22 d0 bb f0 b8 6e be ba 95 9c be 38 4c da 3d
       -0.0063518197 -0.23312736 -0.30582982 0.10659069
0003f0 40 14 19 3d 91 1f f6 bb 9a 03 4c be 06 5a 26 3e
       0.037372828 -0.007511087 -0.19923249 0.16245279

fc3.bias f4 [4]
000000 b4 b4 89 bd 0c fa 94 bd 3e 22 90 bd 06 b5 b6 bc
       -0.067239195 -0.07274255 -0.07037781 -0.022303116
